models/BCE Only (v8)/final_deployment/page_break_detector.onnx (onnx, 136380 bytes, 1 tensors)

view f4 [1, 1, 17]
0	0x3a7a2519	0.0009542271
1	0x3b4fa0a8	0.0031681452
2	0x3c12db1a	0.008963371
3	0x3cb10703	0.021609789
4	0x3d35d871	0.044395868
5	0x3d9f2d0a	0.077722624
6	0x3ded766c	0.11594853
7	0x3e16efe3	0.14739947
8	0x3e238217	0.15967594
9	0x3e16efe3	0.14739947
10	0x3ded766c	0.11594853
11	0x3d9f2d0a	0.077722624
12	0x3d35d871	0.044395868
13	0x3cb10703	0.021609789
14	0x3c12db1a	0.008963371
15	0x3b4fa0a8	0.0031681452
16	0x3a7a2519	0.0009542271
