models/BCE and EMD/final_deployment/page_break_detector.onnx (onnx, 200082 bytes, 1 tensors)

view f4 [1, 1, 23]
00000000: 598a ac3a 2655 393b 4417 b93b c2dd 2b3c
00000010: ab60 943c 2334 ee3c 69c6 313d 08b7 763d
00000020: a42b 9f3d 90f4 be3d 36ff d43d 49e5 dc3d
00000030: 36ff d43d 90f4 be3d a42b 9f3d 08b7 763d
00000040: 69c6 313d 2334 ee3c ab60 943c c2dd 2b3c
00000050: 4417 b93b 2655 393b 598a ac3a
0.0013163789 0.0028279512 0.0056485254 0.010489883 0.018112501 0.029077595 0.04340211 0.060233146
0.07771996 0.0932399 0.1040024 0.1078592 0.1040024 0.0932399 0.07771996 0.060233146
0.04340211 0.029077595 0.018112501 0.010489883 0.0056485254 0.0028279512 0.0013163789
